LSTM_Model.pth (torch, 220311 bytes, 6 tensors)

lstm.weight_ih_l0 f4 [400, 34]
1.7359433 0.78325814 1.3883929 0.48510775 0.79664946 4.487016 5.2479916 2.7031415
2.4070377 2.6109033 1.8060491 3.2071834 2.8113208 1.2473588 0.52355206 -2.4427958
-1.8249938 -3.0969517 -2.5596716 -2.2838902 -3.0798056 -2.1461444 -4.1051655 -3.2339354
-2.2295175 -2.2165687 -0.49632934 -0.44969565 0.60045403 -0.3473135 1.6871183 1.5805129
0.423751 1.2130445 0.0034452826 0.06822579 -0.09342253 -0.018216945 8.895993e-06 0.09263248
0.05016636 -0.0032026619 -0.021121956 0.07285499 -0.0005380139 0.07029902 -0.09421977 0.071258195
0.069775544 0.06410026 -0.01865977 0.07691591 0.0619737 0.038467802 -0.07193557 -0.050834276
0.010842405 0.053036235 -0.065488264 -0.016695186 0.041174017 0.09227065 0.09105814 0.09190317
0.011001825 -0.012240216 0.027680643 -0.029095732 1.544901 0.63039595 1.2448596 0.43890417
0.69285643 4.1901054 5.0415864 2.6585898 2.2689142 2.6009135 1.7264098 3.0699303
2.667109 1.2151384 0.56651586 -2.1825626 -1.8244157 -2.9187772 -2.442589 -2.2000318
-3.0660906 -2.1263614 -4.0825477 -2.977418 -2.1111453 -2.0695412 -0.4194111 -0.21746
0.49469325 -0.2926389 1.792812 1.5652236 0.53071004 1.2291508 1.7092499 1.2459005
1.6159873 0.80151725 0.8828481 3.9648669 4.794758 2.3549414 2.1541433 2.2587159
1.465682 2.681795 2.0943444 0.41623104 -0.2292621 -2.113936 -1.5758529 -2.574808
-2.0587535 -1.8505107 -2.488486 -1.8347967 -3.992845 -3.1840746 -2.356918 -2.2283316
-0.7587612 -0.66588515 -0.03069241 -0.8477848 1.0398993 0.71437776 0.70491886 1.1794014
-3.1308584 -3.3591096 -3.232324 -3.7110806 -3.6228182 -2.3957627 -3.2426114 -1.9791914
-1.7104548 -2.1940553 -1.1934733 -0.18379733 1.1583612 3.0044806 3.3846374 3.174806
2.62893 0.755586 -0.096831426 -0.26586372 -0.4891969 -1.362269 4.0894365 3.6793284
2.519536 2.8957076 1.7650428 2.3878403 3.055412 4.144056 3.5247264 3.74253
2.3347294 1.4918402 1.4604135 0.4849295 1.1123023 0.20159979 0.57019633 4.2775574
5.0889845 2.765687 2.4247723 2.5837326 1.6986336 3.2684534 2.900801 1.3847443
0.80975646 -2.2562864 -1.9099814 -3.0460427 -2.7117307 -2.3448458 -3.382888 -2.3048842
-3.940468 -2.8887348 -1.932532 -2.00759 -0.27479646 -0.29427764 0.82596713 -0.06670235
2.002456 1.7215285 0.54347146 1.0926323 0.053266495 -0.03181714 0.028866803 0.013604609
-0.052869678 -0.08181512 -0.05940988 0.051989622 0.038203754 0.08481755 0.07771739 0.007836059
-0.088352196 0.02196877 -0.03530735 -0.08934476 0.036091365 0.026259579 0.10001218 -0.04860421
0.06780348 0.026938414 -0.0038596832 0.009186024 0.009204598 0.0037599634 -0.082929425 0.048688788
-0.056565877 -0.04882492 0.06574897 -0.083828084 -0.024283985 0.07603632 1.1928593 0.14116798
0.7943345 -0.3469126 -0.47650346 3.8598769 4.33526 2.1324615 1.8909779 2.1335092
1.4159844 3.105004 3.157172 2.2877731 1.9323336 -0.32648924 -0.08557876 -2.670905
00000000: 6433 de3f 9b83 483f dcb6 b13f 0b60 f83e
00000010: 38f1 4b3f a395 8f40 8cef a740 4500 2d40
00000020: e80c 1a40 0a19 2740 9e2c e73f 7e42 4d40
00000030: aeec 3340 74a9 9f3f 8207 063f c456 1cc0
00000040: 6699 e9bf 7534 46c0 a9d1 23c0 422b 12c0
00000050: 891b 45c0 6e5a 09c0 845d 83c0 ccf8 4ec0
00000060: 6ab0 0ec0 43dc 0dc0 e11e febe 823e e6be
00000070: 5bb7 193f 13d3 b1be 7ef3 d73f 3f4e ca3f
00000080: e4f5 d83e 0b45 9b3f 40ca 613b f7b9 8b3d
00000090: 5054 bfbd b43b 95bc 0040 1537 19b6 bd3d
000000a0: 3e7b 4d3d c0e3 51bb f407 adbc ff34 953d
000000b0: 8009 0dba eff8 8f3d 4bf6 c0bd d1ef 913d
000000c0: 7be6 8e3d ff46 833d 60dc 98bc 1786 9d3d
000000d0: 22d8 7d3d 6a90 1d3d f552 93bd 9a37 50bd
000000e0: 58a4 313c 863c 593d b61e 86bd 58c4 88bc
000000f0: 16a6 283d 65f8 bc3d b17c ba3d bb37 bc3d
00000100: 0041 343c 308b 48bc 84c2 e23c 2c5a eebc
00000110: 51bf c53f a161 213f 8f57 9f3f 0cb8 e03e
00000120: 0a5f 313f 5815 8640 ad54 a140 5626 2a40
00000130: e435 1140 5e75 2640 fffa dc3f bd79 4440
00000140: eab1 2a40 a889 9b3f 2f07 113f 1baf 0bc0
00000150: 7486 e9bf 3fcd 3ac0 6153 1cc0 52cd 0cc0
00000160: d43a 44c0 4e16 08c0 3ba4 82c0 048e 3ec0
00000170: 011d 07c0 5d73 04c0 0dbd d6be d6ad 5ebe
00000180: 6f48 fd3e c4d4 95be dd7a e53f 3f59 c83f
00000190: 9ddc 073f d054 9d3f b3c8 da3f ab79 9f3f
000001a0: acd8 ce3f 3c30 4d3f 5502 623f 61c0 7d40
000001b0: a86e 9940 5cb7 1640 7cdd 0940 cd8e 1040
000001c0: 789b bb3f 87a2 2b40 bd09 0640 3c1c d53e
000001d0: afc3 6abe ba4a 07c0 8cb5 c9bf a7c9 24c0
000001e0: 9ec2 03c0 89dd ecbf 5b43 1fc0 9eda eabf
000001f0: c68a 7fc0 e1c7 4bc0 bfd7 16c0 fc9c 0ec0
00000200: 2d3e 42bf 7377 2abf a66e fbbc 6d08 59bf
00000210: 6c1b 853f 76e1 363f 9075 343f a0f6 963f
00000220: fc5f 48c0 a7fb 56c0 65de 4ec0 5882 6dc0
00000230: 41dc 67c0 2d54 19c0 f286 4fc0 2556 fdbf
00000240: 2ff0 dabf 676b 0cc0 bcc3 98bf 5e35 3cbe
00000250: 2e45 943f 6949 4040 e69d 5840 0630 4b40
00000260: 6440 2840 166e 413f 8e4f c6bd 4a1f 88be
00000270: 0478 fabe d55e aebf aadc 8240 1e7a 6b40
00000280: 1440 2140 4653 3940 ecec e13f 60d2 1840
00000290: df8b 4340 1b9c 8440 1e95 6140 9d85 6f40
000002a0: 356c 1540 9ff4 be3f d4ee ba3f ae48 f83e
000002b0: ec5f 8e3f 2d70 4e3e 63f8 113f c0e1 8840
000002c0: f6d8 a240 0401 3140 782f 1b40 e05b 2540
000002d0: d36c d93f 572e 5140 b9a6 3940 4d3f b13f
000002e0: 334c 4f3f ff66 10c0 457a f4bf 5df2 42c0
000002f0: ff8c 2dc0 f411 16c0 3d81 58c0 3983 13c0
00000300: a130 7cc0 08e1 38c0 355d f7bf 5b7c 00c0
00000310: 1fb2 8cbe 8fab 96be 9572 533f 3e9b 88bd
00000320: 3d28 0040 0c5b dc3f f220 0b3f 60db 8b3f
00000330: f82d 5a3d b052 02bd 137a ec3c dee5 5e3c
00000340: e08d 58bd b08e a7bd c657 73bd 12f3 543d
00000350: 8a7b 1c3d d3b4 ad3d 4c2a 9f3d d062 003c
00000360: fff1 b4bd daf7 b33c 719e 10bd 63fa b6bd
00000370: 8ad4 133d 541e d73c 30d3 cc3d 3515 47bd
00000380: 8ddc 8a3d f3ad dc3c bdf2 7cbb fa80 163c
00000390: e2ce 163c b869 763b e7d6 a9bd e56d 473d
000003a0: 9fb1 67bd a4fc 47bd 65a7 863d 0fae abbd
000003b0: 35ef c6bc eeb8 9b3d 9daf 983f 578e 103e
000003c0: 8159 4b3f 879e b1be 43f8 f3be 3908 7740
000003d0: 73ba 8a40 407a 0840 900b f23f 6a8b 0840
000003e0: fa3e b53f 63b8 4640 1b0f 4a40 e06a 1240
000003f0: b556 f73f 9929 a7be eb43 afbd 1cf0 2ac0

lstm.weight_hh_l0 f4 [400, 100]
0.050361298 -0.025362507 0.025041305 0.099220134 -0.0010130554 -0.017809749 -0.062194597 -0.03583423
-0.03177174 -0.03718712 0.09091518 -0.092303716 0.05659818 0.0637378 -0.003787458 0.09217017
-0.07568302 -0.058208216 -0.085644916 -0.09551382 0.049211733 0.08987533 0.06505952 -0.03294003
0.06884358 -0.057570767 0.048594795 -0.044120993 0.016938493 0.09049275 -0.02597455 -0.0073247105
-0.083004415 -0.09986961 0.08488325 -0.011959448 -0.03424263 -0.023982465 0.09819875 0.0575056
0.07253308 -0.022071764 -0.08129771 -0.018910542 -0.0539078 -0.04024575 -0.064725116 -0.08268609
0.07678551 0.08927124 -0.044825125 0.028527431 0.0063623786 -0.012958467 -0.009851083 0.007033482
0.036886834 0.08876357 -0.04437251 0.08577783 -0.070004776 0.001571238 0.091148965 -0.07633432
-0.016388439 0.07557996 -0.06596409 0.07540765 -0.077365234 -0.027340159 -0.0844838 0.03760036
0.027274318 -0.06431322 0.089902185 -0.0743482 0.018702663 0.014658228 -0.069522485 0.05451698
-0.096274845 0.057244487 0.034567945 -0.04174019 -0.025021888 -0.09854945 -0.059111774 -0.030075684
0.08713061 0.02111961 0.070603974 -0.042321563 -0.05531906 0.0420138 0.061592497 0.095986955
-0.02768989 0.088100515 0.05811312 -0.003526941 -0.0064981356 0.008699432 0.005815223 0.0937252
-0.059253026 -0.033254787 0.07374472 -0.002203688 -0.04259044 0.08072478 0.015456304 0.021118462
0.030500703 -0.091212176 0.028801031 -0.01970464 0.06889147 0.09675313 -0.03139112 0.013047479
-0.044805374 -0.04933871 0.08410103 -0.023538128 0.08413304 -0.02862706 -0.017425917 -0.04594245
-0.013947487 -0.032224752 -0.08968303 0.08127787 0.03649599 -0.034174122 0.07779587 -0.08886396
0.04697139 -0.030544005 0.040472873 -0.047571696 0.03001047 -0.024050094 0.09437039 0.08293789
0.008484602 0.03580471 -0.02661965 -0.083650626 -0.07205746 -0.0049345717 -0.052125957 0.07589931
-0.059876133 0.043306716 -0.013830945 -0.059903182 0.060341246 0.04676885 -0.08013163 0.041775562
0.094504096 0.06101968 0.044701345 0.08443854 0.09711505 -0.0045667067 0.08693091 -0.034671202
-0.03219471 0.038729586 0.07181371 -0.008173272 0.00046001375 0.0446383 0.050022997 -0.05362418
-0.014057711 -0.007512212 -0.059707966 0.036278106 -0.061705854 0.036156185 -0.09169151 -0.059652675
0.08434189 0.087413214 0.039931037 0.02255603 0.08633632 -0.036643624 -0.09837114 0.013051569
0.07622001 -0.0104417205 0.08726994 0.085588686 -0.012280546 0.007741943 -0.0014331788 0.05705624
-0.045822646 0.035903536 -0.04167366 -0.05502044 0.027581342 -0.053218294 0.062573545 -0.0037491322
-0.05604993 0.041311406 0.08295076 0.033691637 -0.09419169 -0.048195627 -0.05374179 -0.04110035
-0.08141581 0.054201894 -0.00595627 -0.03825257 0.066764005 0.031816192 -0.06522481 -0.0076578856
-0.011285424 -0.08368808 0.0962119 -0.09597411 -0.078471765 -0.03330896 0.055346675 0.0129807
-0.06897527 0.04341758 -0.053379167 -0.03691493 0.039265282 0.009620346 -0.096146084 -0.09403807
0.057068937 0.0036789998 0.060889967 0.025342472 -0.06885582 0.07798255 0.037290476 -0.0026286393
-0.004950151 -0.013850018 -0.07025037 0.060139813 -0.008663312 0.011233866 0.07692165 0.04867924
00000000: a647 4e3d 08c5 cfbc 6c23 cd3c ed33 cb3d
00000010: 80c8 84ba c0e5 91bc c3bf 7ebd eac6 12bd
00000020: 1623 02bd 8651 18bd bd31 ba3d bb09 bdbd
00000030: 7ed3 673d f788 823d 0037 78bb b7c3 bc3d
00000040: b3ff 9abd bd6b 6ebd 9a66 afbd c09c c3bd
00000050: 3e92 493d 8f10 b83d ed3d 853d 20ec 06bd
00000060: ddfd 8c3d 53cf 6bbd 560b 473d 37b8 34bd
00000070: 98c2 8a3c 4354 b93d 94c8 d4bc 2004 f0bb
00000080: 38fe a9bd 7088 ccbd 45d7 ad3d 90f1 43bc
00000090: 0042 0cbd e076 c4bc 6d1c c93d fe8a 6b3d
000000a0: 398c 943d d8cf b4bc 6a7f a6bd 48ea 9abc
000000b0: 6dce 5cbd bad8 24bd 9a8e 84bd 5357 a9bd
000000c0: b941 9d3d d7d3 b63d 8d9a 37bd 5cb2 e93c
000000d0: 807b d03b c04f 54bc 7066 21bc 2079 e63b
000000e0: a616 173d adc9 b53d f3bf 35bd 49ac af3d
000000f0: aa5e 8fbd 00f2 cd3a 4fac ba3d 2b55 9cbd
00000100: 0c41 86bc abc9 9a3d 2e18 87bd 536f 9a3d
00000110: aa71 9ebd 78f8 dfbc d805 adbd d602 1a3d
00000120: 646e df3c a6b6 83bd a31e b83d de43 98bd
00000130: 5436 993c 1029 703c ce61 8ebd 324d 5f3d
00000140: bf2b c5bd 3279 6a3d 1e97 0d3d c3f7 2abd
00000150: b4fa ccbc 4bd4 c9bd 301f 72bd 4861 f6bc
00000160: 8971 b23d 0803 ad3c d198 903d 6059 2dbd
00000170: 3d96 62bd aa16 2c3d 6a48 7c3d cf94 c43d
00000180: e8d5 e2bc 0b6e b43d 0608 6e3d 4024 67bb
00000190: 50ee d4bb 1088 0e3c a08d be3b fff2 bf3d
000001a0: 4db3 72bd 2c36 08bd 7907 973d c06b 10bb
000001b0: 5073 2ebd 0953 a53d 703c 7d3c a000 ad3c
000001c0: 9cdc f93c 73cd babd 24f0 eb3c a06b a1bc
000001d0: f916 8d3d 8126 c63d fa93 00bd 18c5 553c
000001e0: d785 37bd 6317 4abd 293d ac3d 08d3 c0bc
000001f0: f14d ac3d 4c83 eabc ccc0 8ebc 272e 3cbd
00000200: 0084 64bc 1afe 03bd bdab b7bd 0375 a63d
00000210: d27c 153d 2afa 0bbd 7153 9f3d 4ffe b5bd
00000220: 1265 403d 6c37 fabc e2c6 253d 8ada 42bd
00000230: 84d8 f53c b404 c5bc 4345 c13d 57db a93d
00000240: 0003 0b3c f6a7 123d 7411 dabc 0551 abbd
00000250: dd92 93bd 30b2 a1bb 0782 55bd 1971 9b3d
00000260: ad40 75bd 6262 313d 309b 62bc 0a5d 75bd
00000270: 6228 773d b290 3f3d 0d1c a4bd da1c 2b3d
00000280: 5d8b c13d c6ef 793d c218 373d 1dee ac3d
00000290: 41e4 c63d 50a4 95bb d508 b23d 6403 0ebd
000002a0: 9ade 03bd eaa2 1e3d 1113 933d 30e9 05bc
000002b0: 002e f139 a6d6 363d eae4 4c3d 07a5 5bbd
000002c0: 5052 66bc 0029 f6bb 5790 74bd 5a98 143d
000002d0: 47bf 7cbd 8218 143d c2c8 bbbd 5d56 74bd
000002e0: 71bb ac3d b305 b33d ba8e 233d 6cc7 b83c
000002f0: 19d1 b03d a017 16bd cf76 c9bd 40d6 553c
00000300: 3d19 9c3d c013 2bbc 95ba b23d 1f49 af3d
00000310: 5834 49bc 20b0 fd3b 80d9 bbba ceb3 693d
00000320: 87b0 3bbd 960f 133d 00b2 2abd 1d5d 61bd
00000330: 44f2 e13c 6dfb 59bd 8f26 803d 00b4 75bb
00000340: 9d94 65bd 2636 293d 17e2 a93d 3e00 0a3d
00000350: 93e7 c0bd c768 45bd 5a20 5cbd d758 28bd
00000360: 55bd a6bd ce02 5e3d d02c c3bb baae 1cbd
00000370: 91bb 883d b251 023d 9694 85bd 00ef fabb
00000380: 80e6 38bc a864 abbd bf0a c53d 138e c4bd
00000390: ceb5 a0bd fa6e 08bd 32b3 623d 00ad 543c
000003a0: e842 8dbd a2d6 313d 1da4 5abd 1c34 17bd
000003b0: a2d4 203d a89e 1d3c 3de8 c4bd 0897 c0bd
000003c0: 1ec1 693d 601b 713b c267 793d 049b cf3c
000003d0: 4804 8dbd 51b5 9f3d e6bd 183d 4045 2cbb
000003e0: e034 a2bb 30eb 62bc 6ddf 8fbd 2a55 763d
000003f0: 90f0 0dbc 400e 383c 1989 9d3d e263 473d

lstm.bias_ih_l0 f4 [400]
1.349299 -0.065806046 1.4039013 0.65727824 4.1173167 1.6163378 -0.024480596 2.569737
-0.04385053 1.1584253 0.9805417 3.0125878 0.9542358 -0.05484014 -0.026378706 -0.020258881
0.080795534 -0.006958388 4.3028464 3.091338 0.69128555 0.82035744 2.9143689 1.1082681
-0.08988821 0.9333575 -0.07977875 0.7841264 3.051083 -0.05869609 -0.09435022 0.04090362
2.985117 3.0780175 0.73743975 -0.028575875 0.008911833 0.02073966 -0.074038506 -0.0008607358
0.03127896 0.95933956 0.021741197 0.5282548 2.8818588 -0.072360404 1.048145 2.878546
2.9597645 -0.09920436 2.910582 1.1794033 0.07921276 2.9593167 -0.050736338 -0.0370463
-0.03030964 -0.028509714 2.8975925 1.1814113 -0.05207497 2.9052384 0.090480365 -0.019786261
-0.07221331 -0.019103125 -0.09352374 0.8237806 1.1680138 0.7817299 1.0238554 1.0523489
-0.00423418 0.06421428 4.011769 0.6213467 2.9547791 0.05307568 1.2694461 2.975817
-0.054164853 -0.042037096 0.05872632 -0.008234128 0.09973302 -0.088513575 0.029088862 0.96074766
0.02454362 -0.05553006 0.027286941 2.8683412 -0.039032172 0.036566623 0.8767431 3.0018494
-0.08348195 -0.023119077 2.9356484 1.3238745 -0.041478503 0.042126723 0.027016602 -0.08832071
-0.050218787 -0.0229939 0.027581058 0.08082125 0.07761044 -0.005787097 0.06313627 0.046362527
-0.0841076 0.05950827 -0.06270448 -0.07033739 0.08449244 -0.079620875 -0.0003132373 0.04006315
-0.09756305 -0.017107524 0.001496993 0.06999683 0.048188217 -0.035273194 -0.05166992 -0.008583389
-0.081342004 -0.057834208 -0.05600984 0.030059107 0.026947208 0.06524434 -0.0868051 -0.061644174
0.0022375807 -0.032904565 0.031298615 0.074010156 -0.016673282 0.03178037 0.08967415 0.09967383
-0.01866629 0.052585743 0.012281857 -0.061938323 -0.05208795 0.08195674 0.08061493 -0.042820014
0.005874537 -0.02538997 -0.012167133 -0.06038035 -0.038947143 -0.039773107 -0.07438506 0.018036887
-0.09143557 -0.022481307 -0.019854948 0.04574708 0.03119386 0.09613422 0.09987999 -0.093830846
-0.08962512 -0.07757597 0.007297918 0.06775718 -0.06668012 0.012384832 0.07573015 -0.08626186
0.021860972 0.044545434 0.05465705 0.026306741 -0.029976532 -0.0799732 -0.015867218 -0.019497499
-0.037084833 0.09698584 -0.031555533 0.07904454 -0.042505004 0.04645992 -0.02508445 0.05513265
0.03300441 0.07931695 0.033665486 -0.031037256 -0.05948266 0.022261366 0.039991193 0.03051316
0.040292036 -0.070989564 -0.040534187 0.10459796 0.0057714507 0.059582848 -0.054218154 0.019368991
-0.09736257 0.052727178 0.0021373336 0.022536723 0.057851855 -0.0857639 0.04187136 -0.032674134
0.0040685534 -0.07954248 0.046134636 0.024061805 0.095996834 0.0537287 0.063743696 0.0059953122
-0.019119821 0.056891695 -0.07861476 0.06374997 0.047752436 -0.08246374 -0.030660138 -0.067335404
0.008594193 0.03538133 0.09509509 -0.09763844 -0.053729594 -0.05988884 0.0612778 0.062755145
-0.07583116 0.10139884 -0.053281784 0.091865025 0.05195259 0.07707546 0.011797566 0.052876506
-0.0127750095 -0.09731962 -0.05016367 0.0027037875 -0.022172868 0.006977509 0.034483064 0.017854609
00000000: d4b5 ac3f 52c5 86bd 0ab3 b33f 6343 283f
00000010: 0fc1 8340 28e4 ce3f 888b c8bc 9276 2440
00000020: 9d9c 33bd 4847 943f c804 7b3f 3dce 4040
00000030: cc48 743f 0ea0 60bd 2818 d8bc f4f5 a5bc
00000040: 2178 a53d 3003 e4bb ebb0 8940 7bd8 4540
00000050: 17f8 303f f202 523f 0585 3a40 bbdb 8d3f
00000060: 4f17 b8bd 84f0 6e3f 0b63 a3bd 82bc 483f
00000070: f244 4340 506b 70bd b03a c1bd 8e8a 273d
00000080: 280c 3f40 3dfe 4440 dac8 3c3f f417 eabc
00000090: f002 123c 38e6 a93c 80a1 97bd 00a3 61ba
000000a0: 5e1e 003d 4797 753f 981a b23c b53b 073f
000000b0: 6070 3840 b131 94bd 9e29 863f 193a 3840
000000c0: c86c 3d40 a82b cbbd fa46 3a40 b0f6 963f
000000d0: 4d3a a23d 7265 3d40 e8d0 4fbd dcbd 17bd
000000e0: ec4b f8bc 348d e9bc 2872 3940 7c38 973f
000000f0: 904c 55bd 6def 3940 c54d b93d cc16 a2bc
00000100: 92e4 93bd 287e 9cbc 6089 bfbd 49e3 523f
00000110: 7a81 953f 731f 483f b20d 833f 5eb3 863f
00000120: e0be 8abb c782 833d 6960 8040 9410 1f3f
00000130: 1a1b 3d40 e265 593d 367d a23f c973 3e40
00000140: f7db 5dbd 172f 2cbd 028b 703d 70e8 06bc
00000150: d340 cc3d 9b46 b5bd c44b ee3c 8ff3 753f
00000160: b40f c93c 7d73 63bd dd88 df3c e792 3740
00000170: 33e0 1fbd e2c6 153d 3c72 603f 4d1e 4040
00000180: 96f8 aabd 3864 bdbc aae1 3b40 b874 a93f
00000190: 5de5 29bd 128d 2c3d ec51 dd3c 7de1 b4bd
000001a0: 37b2 4dbd b45d bcbc acf1 e13c 9d85 a53d
000001b0: 39f2 9e3d b0a1 bdbb 974d 813d a2e6 3d3d
000001c0: 9b40 acbd f2be 733d 356b 80bd 0d0d 90bd
000001d0: 5f0a ad3d 4510 a3bd 003a a4b9 4219 243d
000001e0: 23cf c7bd 1425 8cbc c036 c43a 7f5a 8f3d
000001f0: 0261 453d a07a 10bd d7a3 53bd 58a1 0cbc
00000200: a396 a6bd 90e3 6cbd 936a 65bd 843e f63c
00000210: 64c0 dc3c d39e 853d dfc6 b1bd 9a7e 7cbd
00000220: 60a4 123b f0c6 06bd fa32 003d a392 973d
00000230: 6896 88bc 222c 023d 15a7 b73d cb21 cc3d
00000240: 0cea 98bc 2664 573d d839 493c 0ab3 7dbd
00000250: 2d5a 55bd efd8 a73d 7119 a53d 0a64 2fbd
00000260: 307f c03b a0fe cfbc a858 47bc 6351 77bd
00000270: 0a87 1fbd 20e9 22bd 3257 98bd 18c2 933c
00000280: 9242 bbbd b82a b8bc d8a6 a2bc 4a61 3b3d
00000290: 448a ff3c 05e2 c43d e18d cc3d 632a c0bd
000002a0: 608d b7bd 26e0 9ebd 6023 ef3b 47c4 8a3d
000002b0: 968f 88bd c0e9 4a3c 6918 9b3d 0faa b0bd
000002c0: c815 b33c 4675 363d 12e0 5f3d 3c81 d73c
000002d0: 5891 f5bc fdc8 a3bd f8fb 81bc 38b9 9fbc
000002e0: 44e6 17bd 83a0 c63d 6040 01bd 1be2 a13d
000002f0: ba19 2ebd c24c 3e3d e87d cdbc c6d2 613d
00000300: a22f 073d ed70 a23d d2e4 093d d841 febc
00000310: 17a4 73bd 785d b63c cecd 233d bcf6 f93c
00000320: 4309 253d fa62 91bd 2d07 26bd 7537 d63d
00000330: 701e bd3b 250d 743d db13 5ebd b8ab 9e3c
00000340: 0766 c7bd 74f8 573d 8212 0c3b ef9e b83c
00000350: 11f6 6c3d fca4 afbd 4e81 2b3d 50d5 05bd
00000360: 8051 853b 2be7 a2bd acf7 3c3d 431d c53c
00000370: fd99 c43d a012 5c3d 0e8c 823d 5374 c43b
00000380: 2ca1 9cbc 4407 693d c600 a1bd 588f 823d
00000390: 0f98 433d c0e2 a8bd f82a fbbc 25e7 89bd
000003a0: a8ce 0c3c 03ec 103d 37c1 c23d aaf6 c7bd
000003b0: 9013 5cbd 004e 75bd 6efe 7a3d c585 803d
000003c0: 5e4d 9bbd 32aa cf3d 003e 5abd bb23 bc3d
000003d0: 3dcc 543d bdd9 9d3d 944a 413c 0995 583d
000003e0: 464e 51bc 824f c7bd 6c78 4dbd 0732 313b
000003f0: e0a3 b5bc 96a3 e43b 1d3e 0d3d d443 923c

lstm.bias_hh_l0 f4 [400]
1.2655735 0.07526796 1.2782307 0.55464226 4.014561 1.5471196 -0.106259026 2.4359264
0.013233364 1.0808332 1.0032742 3.0152743 0.82749546 0.014229608 0.066735454 0.06124539
0.031930096 -0.05280149 4.3306093 2.9040656 0.73596805 0.71903586 2.9619672 1.0555387
-0.09323349 0.94504344 0.08832199 0.7355434 2.994933 0.06363421 -0.033498406 -0.082925335
3.082911 3.0123017 0.73535526 -0.003039375 -0.07339789 -0.04856653 0.098605715 0.021234378
0.056954123 0.9860994 0.043514766 0.6511126 3.0107794 0.03201351 1.0342054 2.9552763
2.9870684 0.08530731 3.003037 1.2220869 -0.024658285 2.9832397 -0.0043920297 0.010688186
-0.06137786 -0.06728563 2.9213965 1.2137692 0.08899658 3.0405648 -0.06403251 0.006561443
0.08617527 0.007400453 0.06990301 0.7446348 1.0679052 0.7082135 0.96300054 0.8799099
-0.06390491 0.08768997 4.0295453 0.65184784 3.064373 -0.02447351 1.333714 2.9087956
0.07001331 -0.008814253 -0.07257072 0.020694807 0.029411592 -0.07849395 -0.084583044 0.94527346
0.0077622384 0.025835775 -0.05205918 2.8795295 -0.070112504 -0.0853647 0.96788406 2.9720237
0.05364094 0.05509437 2.9570656 1.222389 -0.006898679 0.075812675 0.08905221 0.069604985
0.03509625 -0.031223953 0.089308746 -0.09577408 0.057365693 -0.097852685 -0.025615588 0.02154626
0.034377076 0.033378072 -0.051532328 0.074956365 -0.03020259 -0.04783676 0.05684223 -0.0868474
-0.0005502552 0.07764327 -0.09449289 0.029104538 0.016867042 -0.053600408 0.041882657 -0.052081097
-0.014923073 -0.06613493 0.08549259 0.0086907 0.041924365 0.026951082 -0.022256695 0.017564118
-0.023351267 -0.06519703 0.037015297 0.054373212 0.09819826 -0.098489344 0.08999043 -0.07876961
0.023446225 -0.07765615 0.021366678 -0.076974 -0.006402336 -0.06704962 -0.05153055 0.072597496
0.07678565 0.02414763 -0.047734868 -0.060691178 0.0617423 0.044770934 -0.018570378 0.0004106313
-0.025319979 0.07204906 -0.07402948 -0.064556934 0.07665277 -0.026174948 0.021105446 0.04255513
-0.016224936 0.07765261 0.05083748 0.089328445 0.027318396 -0.08204987 0.024951264 0.09044232
-0.07574575 0.08924764 0.023363069 -0.008367717 0.056915708 -0.009687029 -0.025335327 0.08667082
-0.07962091 0.092606254 -0.02012141 0.03234174 -0.046754587 -0.09633764 -0.046365272 0.034499593
-0.08685887 0.021512292 0.02070687 -0.09837433 -0.02668085 -0.011814199 0.041159756 -0.053304195
0.07006203 -0.018788457 0.14392851 0.10750983 0.029266587 0.025723122 0.04131546 0.042449705
0.023485027 0.074999705 0.13588989 0.023315532 0.10152971 0.081803374 -0.06704028 -0.027044155
-0.020374857 -0.09841495 -0.010733994 0.021863187 0.10002264 0.11864243 -0.018092597 0.11707363
-0.011666812 0.09488514 0.058148824 0.117812134 -0.001797856 0.07253943 -0.07226183 -0.026524141
0.03563288 0.011271547 0.09541734 0.05317145 0.018955275 -0.095798604 -0.09516287 -0.0734838
0.019800186 0.04369753 -0.0471673 0.12095747 -0.006114356 -0.08144336 0.12070166 -0.0066812118
0.05821443 0.027843557 0.093641266 0.114449754 -0.058376264 0.038690515 -0.04132441 -0.09380696
00000000: 50fe a13f 1726 9a3d 109d a33f 09fd 0d3f
00000010: 4977 8040 0408 c63f 559e d9bd 38e6 1b40
00000020: c0d0 583c be58 8a3f 4a6b 803f 41fa 4040
00000030: bed6 533f 4d23 693c 99ac 883d 72dc 7a3d
00000040: 22c9 023d 6046 58bd 5a94 8a40 36dc 3940
00000050: 6768 3c3f bc12 383f df90 3d40 e41b 873f
00000060: 33f1 bebd 5eee 713f 29e2 b43d 924c 3c3f
00000070: fbac 3f40 a752 823d a035 09bd c2d4 a9bd
00000080: 6a4e 4540 8dc9 4040 3e40 3c3f 4030 47bb
00000090: a251 96bd b3ed 46bd cbf1 c93d b8f3 ad3c
000000a0: ba48 693d 0371 7c3f 8a3c 323d 51af 263f
000000b0: 9cb0 4040 9920 033d d860 843f 3f23 3d40
000000c0: 212c 3f40 99b5 ae3d c231 4040 586d 9c3f
000000d0: 2c00 cabc 66ed 3e40 04eb 8fbb 801d 2f3c
000000e0: 5a67 7bbd 0ccd 89bd 29f8 3a40 ca5c 9b3f
000000f0: d743 b63d 9d98 4240 7a23 83bd 6001 d73b
00000100: a97c b03d 807f f23b 4f29 8f3d 63a0 3e3f
00000110: 1eb1 883f 7b4d 353f 3487 763f c641 613f
00000120: 94e0 82bd cd96 b33d 09f2 8040 80df 263f
00000130: b01e 4440 ac7c c8bc 24b7 aa3f b529 3a40
00000140: 2363 8f3d a869 10bc f59f 94bd 2888 a93c
00000150: 94f0 f03c 70c1 a0bd e039 adbd 71fd 713f
00000160: 605a fe3b 8ca5 d33c 023c 55bd 364a 3840
00000170: 2597 8fbd b0d3 aebd 40c7 773f a335 3e40
00000180: 9ab6 5b3d a2aa 613d 9040 3d40 3e77 9c3f
00000190: 500e e2bb ad43 9b3d 0161 b63d 0f8d 8e3d
000001a0: 16c1 0f3d 60c9 ffbc 81e7 b63d 3325 c4bd
000001b0: 4af8 6a3d fd66 c8bd c8d7 d1bc c881 b03c
000001c0: face 0c3d 72b7 083d 9013 53bd b982 993d
000001d0: 6c6b f7bc 7af0 43bd 66d3 683d 0ddd b1bd
000001e0: 003f 10ba 6f03 9f3d 7d85 c1bd a46c ee3c
000001f0: c02c 8a3c 1a8c 5bbd 268d 2b3d fd52 55bd
00000200: e87f 74bc c071 87bd bd16 af3d 7063 0e3c
00000210: e2b8 2b3d 84c8 dc3c ac53 b6bc a0e2 8f3c
00000220: 284b bfbc 0586 85bd 5a9d 173d 72b6 5e3d
00000230: 2b1c c93d c8b4 c9bd e74c b83d f651 a1bd
00000240: 4c12 c03c 300a 9fbd 2c09 af3c 8ba4 9dbd
00000250: b0ca d1bb 5051 89bd b311 53bd ffad 943d
00000260: cb41 9d3d 40d1 c53c a385 43bd 5097 78bd
00000270: 7ee5 7c3d ba61 373d e820 98bc 004a d739
00000280: d86b cfbc 758e 933d c59c 97bd 6d36 84bd
00000290: 21fc 9c3d d86c d6bc 54e5 ac3c 4a4e 2e3d
000002a0: 28ea 84bc 5508 9f3d f63a 503d d5f1 b63d
000002b0: d4ca df3c c309 a8bd 9866 cc3c d339 b93d
000002c0: 9620 9bbd 77c7 b63d e863 bf3c c018 09bc
000002d0: 7220 693d 58b6 1ebc 088c cfbc 7980 b13d
000002e0: 4a10 a3bd 59a8 bd3d a8d5 a4bc c678 043d
000002f0: bd81 3fbd ab4c c5bd 83e9 3dbd 724f 0d3d
00000300: 10e3 b1bd 8c3a b03c 74a1 a93c 7b78 c9bd
00000310: cc91 dabc 5890 41bc 2297 283d 8055 5abd
00000320: ae7c 8f3d 40ea 99bc ff61 133e 1d2e dc3d
00000330: 7bc0 ef3c 4cb9 d23c 663a 293d bedf 2d3d
00000340: ac63 c03c 7299 993d b826 0b3e 3700 bf3c
00000350: cfee cf3d 8788 a73d 6a4c 89bd b48b ddbc
00000360: 2ce9 a6bc c78d c9bd a2dd 2fbc 6d1a b33c
00000370: abd8 cc3d cdfa f23d ed36 94bc 4dc4 ef3d
00000380: 2826 3fbc 2453 c23d 762d 6e3d 7d47 f13d
00000390: 09a6 ebba 8d8f 943d 03fe 93bd 2849 d9bc
000003a0: c8f3 113d 4bac 383c 2b6a c33d 4eca 593d
000003b0: 1848 9b3c 0f32 c4bd c0e4 c2bd ad7e 96bd
000003c0: 0034 a23c 2efc 323d 8032 41bd 8db8 f73d
000003d0: f05a c8bb c7cb a6bd 6f32 f73d 11ee dabb
000003e0: 4172 6e3d 2c18 e43c fec6 bf3d a264 ea3d
000003f0: f31b 6fbd f279 1e3d c943 29bd dd1d c0bd

fc_1.weight f4 [2, 100]
1.3684989 -0.0731587 1.4197484 0.6876071 -4.6870003 1.5817126 0.02334793 2.4855747
-0.05375581 1.0936437 1.124729 -3.51724 0.9720729 -0.046145834 -0.06986538 -0.07122803
-0.0020176321 -0.047585454 -4.8520613 -3.5921628 0.8142904 0.8967285 -3.5748055 1.2243226
0.073844306 0.9775917 0.059569977 0.8087063 -3.5266223 -0.066247925 0.0048810393 0.055071555
-3.766536 -3.4598255 0.67289746 -0.07548144 -0.008925974 0.034909494 -0.05207744 0.097620614
0.03373628 0.9535488 -0.051126827 0.7185805 -3.6068828 -0.009048008 1.1192079 -3.4409978
-3.4490995 -0.020248137 -3.6684678 1.319992 -0.0072543994 -3.6450887 -0.07517338 0.019937739
-0.06561872 0.09376582 -3.70043 1.3038944 -0.07102559 -3.7180212 -0.011896387 0.06666305
-0.015888765 -0.045803 -0.003092073 0.7903293 1.0627372 0.7435314 1.1060942 1.0423552
-0.0387115 -0.07145766 -4.925045 0.7637851 -3.5031686 0.045520924 1.2121879 -3.650868
-0.08294989 0.024672821 -0.09224518 0.09590941 0.0075563937 0.0046972483 0.009299219 1.1118153
0.036502488 0.053661816 0.033922546 -3.6208956 0.071092956 -0.034330547 1.0270072 -3.6849468
0.089688264 -0.05912565 -3.4986818 1.3112744 -1.1914091 0.05317121 -1.41424 -0.73921
4.650065 -1.6291816 0.04223971 -2.3665032 -0.011639655 -1.1037413 -1.1100111 3.5781891
-0.8386942 -0.008233825 0.06866475 -0.008851707 -0.026811145 -0.094637886 4.928348 3.7025864
-0.7433665 -0.89038914 3.546393 -1.2070149 -0.04382502 -0.9942941 0.0458524 -0.7753101
3.5668662 0.05396784 -0.08207562 -0.08502346 3.6947794 3.5488255 -0.807104 0.077279486
-0.07072593 -0.049214747 -0.06975796 0.052687846 0.052860744 -1.0405765 -0.019236423 -0.720413
3.5746415 0.013477055 -1.0904261 3.4908674 3.5778794 -0.05851406 3.6908762 -1.1679054
-0.031925753 3.5495238 -0.0014454175 -0.013953149 -0.02545692 -0.037093855 3.673071 -1.3088002
0.037573285 3.652508 -0.07519003 0.054956265 -0.022882223 0.014578737 -0.03726784 -0.90102446
-1.1117414 -0.87430394 -1.0737071 -1.0137149 -0.06979096 0.061318763 4.9749737 -0.7297772
3.5365722 0.08439947 -1.3431984 3.5463276 0.033240177 0.043010972 0.00494425 0.02412057
-0.07599272 -0.04486121 -0.02695918 -1.0330789 -0.045705628 -0.058621347 0.023733797 3.674341
-0.04875741 -0.027549103 -0.9304937 3.69603 -0.07435191 -0.051030338 3.4315858 -1.4016577
00000000: f92a af3f 3ad4 95bd 51ba b53f 0507 303f
00000010: e8fb 95c0 8f75 ca3f 2844 bf3c a813 1f40
00000020: 0d2f 5cbd 84fc 8b3f 1ff7 8f3f 761a 61c0
00000030: c5d9 783f 6a03 3dbd 9515 8fbd 00e0 91bd
00000040: 403a 04bb f7e8 42bd 1644 9bc0 ffe5 65c0
00000050: 5675 503f 0090 653f 9dc9 64c0 9ab6 9c3f
00000060: af3b 973d 7343 7a3f a6ff 733d 6007 4f3f
00000070: 2eb4 61c0 feac 87bd 20f1 9f3b b692 613d
00000080: ed0e 71c0 c86d 5dc0 0243 2c3f 0396 9abd
00000090: 403e 12bc 42fd 0e3d 274f 55bd 51ed c73d
000000a0: 0e2f 0a3d c61b 743f 5d6a 51bd e4f4 373f
000000b0: 2bd7 66c0 193e 14bc 3442 8f3f 4f39 5cc0
000000c0: 0cbe 5cc0 6cdf a5bc 2dc8 6ac0 7ff5 a83f
000000d0: 50b6 edbb 2249 69c0 80f4 99bd 7854 a33c
000000e0: 1c63 86bd 4b08 c03d d8d3 6cc0 03e6 a63f
000000f0: dd75 91bd 0ff4 6dc0 10e9 42bc a386 883d
00000100: 2829 82bc ed9b 3bbd 60a4 4abb 0553 4a3f
00000110: c607 883f 1358 3e3f 7f94 8d3f e56b 853f
00000120: f38f 1ebd 6558 92bd f899 9dc0 6c87 433f
00000130: ea33 60c0 2674 3a3d f928 9b3f d2a7 69c0
00000140: a2e1 a9bd a81e ca3c 0aeb bcbd 276c c43d
00000150: a09b f73b 60eb 993b c05b 183c f74f 8e3f
00000160: a283 153d 7ecc 5b3d 5ef2 0a3d c1bc 67c0
00000170: 2f99 913d 309e 0cbd f974 833f 2bd6 6bc0
00000180: 7bae b73d bd2d 72bd 67ea 5fc0 d7d7 a73f
00000190: 1880 98bf 0eca 593d d105 b5bf de3c 3dbf
000001a0: 55cd 9440 0689 d0bf 8c03 2d3d ca74 17c0
000001b0: 40b4 3ebc 6547 8dbf d814 8ebf 0d01 6540
000001c0: aab4 56bf 2ae7 06bc 1ba0 8c3d c006 11bc
000001d0: 0ca3 dbbc 82d1 c1bd 07b5 9d40 2df7 6c40
000001e0: 444d 3ebf 8bf0 63bf 1af8 6240 777f 9abf
000001f0: dd81 33bd 0f8a 7ebf bacf 3b3d b97a 46bf
00000200: 8947 6440 620d 5d3d 4317 a8bd c820 aebd
00000210: 4477 6c40 f51f 6340 5e9e 4ebf b544 9e3d
00000220: c2d8 90bd 6795 49bd 43dd 8ebd 36cf 573d
00000230: 8284 583d 9c31 85bf b495 9dbc fd6c 38bf
00000240: edc6 6440 dece 5c3c 1593 8bbf 5f6a 5f40
00000250: fafb 6440 70ac 6fbd 5137 6c40 ed7d 95bf
00000260: 94c4 02bd 662b 6340 2a74 bdba c09b 64bc
00000270: 088b d0bc baef 17bd 9813 6b40 c486 a7bf
00000280: 72e6 193d b1c2 6940 3bfd 99bd d219 613d
00000290: 8073 bbbc a8db 6e3c 2aa6 18bd 8aa9 66bf
000002a0: 8b4d 8ebf 62d2 5fbf 3c6f 89bf 69c1 81bf
000002b0: 90ee 8ebd 6229 7b3d fc32 9f40 aed2 3abf
000002c0: 3357 6240 a1d9 ac3d eded abbf 08f7 6240
000002d0: da26 083d 462c 303d 6003 a23b 8098 c53c
000002e0: 12a2 9bbd 63c0 37bd 80d9 dcbc ee3b 84bf
000002f0: d335 3bbd f01c 70bd 616d c23c 6728 6b40
00000300: dab5 47bd a8ae e1bc d634 6ebf c18b 6c40
00000310: d045 98bd 3005 51bd 1a9f 5b40 8569 b3bf

fc_1.bias f4 [2]
0.07741979 0.0063308994
00000000: 448e 9e3d 6f73 cf3b
